shank_brain_horde.pth (torch, 289466 bytes, 12 tensors)

log_std f4 [4]
000000 c0 99 04 bc 90 e4 90 3b fe 19 e6 bb bc 96 b0 b9
       -0.0080932975 0.004421778 -0.0070221415 -0.00033681642

actor.0.weight f4 [256, 8]
000000 20 54 54 bd 7b bc 57 3e b9 d1 96 bd 52 3f 5e be
       -0.05183804 0.21067993 -0.0736422 -0.21703842
000010 fa 1c 44 be b0 a1 9c bd cc 02 08 be b0 e2 a1 3e
       -0.19151679 -0.07648027 -0.13282317 0.3161826
000020 b9 50 f5 3c ad d3 db bb 3a cb 4b 3e cf 68 b6 3e
       0.029945718 -0.0067085833 0.19901744 0.35626838
000030 25 c3 9f bd 36 3c b3 bc a8 b2 6c be 6a f3 67 3e
       -0.07800893 -0.021879297 -0.23115027 0.22651449
000040 2f 3f fc bd 2b 48 b5 3e 27 86 05 be 22 bf 5d 3e
       -0.12316739 0.35406622 -0.13039456 0.21654943
000050 9f a6 c0 3d 5b 63 b4 3e c7 84 82 3e 3c fb 0e be
       0.094067805 0.35232052 0.25491926 -0.13963026
000060 83 a6 9a 3d f7 32 b3 bd 54 65 3f 3d f9 55 0c bb
       0.07551291 -0.08749955 0.046727493 -0.0021413548
000070 cc 94 e4 bd dd 77 20 3e b0 a6 a2 bd be ed 8a be
       -0.11161193 0.15670724 -0.07941949 -0.27134508
000080 2f c1 8c 3e 81 6c 8e bd ab 7f 04 3e f3 37 89 be
       0.27491137 -0.06954289 0.12939326 -0.26800498
000090 6a 46 a6 3c 05 5c 0e bd b5 a5 4e 3d 3d d4 92 be
       0.020297248 -0.034755725 0.050451 -0.2867755
0000a0 03 10 3a 3e 0d 9f 31 3e 7b 7a 6b 3e 8d e7 9b 3e
       0.1817017 0.1734583 0.22995941 0.30450097
0000b0 4d 79 6a 3e c8 54 a9 3e d1 6a 39 3d 84 58 a8 be
       0.22897835 0.33072495 0.045267884 -0.32880032
0000c0 74 1e a3 3e 71 e3 d5 3d 84 98 ca bd df ac f1 bc
       0.3185917 0.10443772 -0.09892371 -0.029501377
0000d0 1a ca 84 3e 7b 2f 1a bd a2 e6 62 be 08 b5 98 3e
       0.2593544 -0.037642937 -0.22158292 0.29825616
0000e0 1b 1d 1c be 02 45 69 be 33 f0 88 3e 7c c2 c5 3c
       -0.15245478 -0.2278023 0.26745757 0.024140589
0000f0 b4 0e 20 3e e9 80 91 be 60 ef 92 be 9b 27 bd bd
       0.15630609 -0.28418663 -0.28698254 -0.0923607
000100 57 f9 60 bd 6b a7 b7 be 6b 10 bb 3d 87 9c 8c be
       -0.05492529 -0.35869917 0.09133991 -0.2746317
000110 d8 dc b8 bd 68 ef 9a 3e 98 07 85 ba e7 72 7e 3d
       -0.090264976 0.30260777 -0.0010149358 0.0621213
000120 75 2a 1a 3c 07 01 a9 be a3 46 81 3e ce 30 02 3e
       0.009409537 -0.33008596 0.25249204 0.1271393
000130 41 73 3e 3e 1b e9 3f 3e e6 c2 9d be ba a1 53 bd
       0.18598653 0.18741266 -0.30812758 -0.051667906
000140 4f be 9c be 9b 09 aa bb a6 cf 32 be 2f a1 f3 bd
       -0.30613944 -0.0051891333 -0.17462024 -0.11895978
000150 af 60 85 bd f5 32 9e 3e 48 8f d4 3d e1 55 8e bd
       -0.065125816 0.30898252 0.10378891 -0.06949974
000160 8d b8 40 3e 22 54 e6 bd 9d 2c 85 be d1 95 b0 3e
       0.188204 -0.11246516 -0.260106 0.344893
000170 d7 57 89 be d2 26 63 3e ab 0f a1 bc 0f 1a bc ba
       -0.2682483 0.22182778 -0.019660791 -0.0014351028
000180 ec 00 c7 3d 62 2c 28 be 07 bb b5 3d 03 93 39 be
       0.09716973 -0.1642318 0.08873563 -0.18122487
000190 92 3f 99 be 25 d6 11 3e 90 e8 54 be 99 33 b9 3c
       -0.29931313 0.14241846 -0.2079184 0.022607611
0001a0 dd 5e b3 bd 24 e3 36 3e 66 ff 2b 3e 6d c3 75 3d
       -0.08758328 0.17860085 0.16796646 0.060000826
0001b0 cf 1c 5c 3e 00 03 a8 be e6 93 34 3e 76 da 89 3e
       0.21495365 -0.3281479 0.17634544 0.26924485
0001c0 3b b6 9a be c7 eb 22 3e b0 c8 3f 3e eb 7a 1b bc
       -0.30217156 0.15910254 0.187289 -0.009489755
0001d0 3d 41 9a be b5 b8 81 be a6 74 8f be b4 08 18 3e
       -0.30127898 -0.25336233 -0.28018683 0.1484707
0001e0 27 fb f1 3d 28 36 84 be 36 37 fe 3d 39 e8 44 3e
       0.11815482 -0.25822568 0.124128744 0.19229211
0001f0 e9 c7 33 3e c9 c2 ac 3e 89 fc 90 bd 39 50 7f 3e
       0.17556728 0.3374236 -0.07079417 0.24932946
000200 2c ec bf 3d a7 02 f8 3d b5 26 21 bd f9 c7 87 bd
       0.09371218 0.12109881 -0.039343555 -0.06629939
000210 57 0b 8e be 88 94 9f 3d fc ff 5b be 38 23 b4 3b
       -0.27743027 0.07792002 -0.21484369 0.0054973625
000220 2f 29 a3 3e 0f 2e 1c 3e ed a3 89 bc 7b 36 ee 3c
       0.31867358 0.15251945 -0.016801799 0.029078713
000230 3e 11 82 3e ad a9 3d 3e 7b 44 28 3e 0b 01 f3 bd
       0.2540378 0.18521757 0.16432373 -0.11865433
000240 0f 93 2f be a9 98 33 be 48 22 1f 3e 47 22 8c 3c
       -0.17145942 -0.17538704 0.15540421 0.017106188
000250 e6 ba 93 be cf 6b 8a 3d f3 0f a8 be f3 79 64 be
       -0.2885353 0.06758844 -0.32824668 -0.22312145
000260 ac e0 96 be c6 e9 65 be b6 13 13 be 3c 23 07 be
       -0.29468286 -0.22452459 -0.14362988 -0.13197035
000270 c3 62 b1 3e e0 d3 7e 3e 5c 04 94 3e 39 59 37 3e
       0.34645662 0.24885511 0.28909576 0.1790513
000280 25 51 19 be a9 90 7a bc 18 8b ed 3d bf 21 0e be
       -0.1497236 -0.015293279 0.11598796 -0.1388006
000290 71 40 c0 3d 96 07 a1 be 3e 18 93 be d0 60 9b be
       0.09387291 -0.314511 -0.28729433 -0.303473
0002a0 6a 4b 01 3e 33 a6 12 be cc ce 83 3e 6a 88 10 be
       0.12626424 -0.14321212 0.2574371 -0.14114538
0002b0 26 9d 06 3e 67 05 db bd 32 b1 96 be a0 27 17 3e
       0.13145885 -0.1069439 -0.29432064 0.1476121
0002c0 94 eb b6 3e a8 63 54 3d d3 dd 84 be b9 5d 91 3d
       0.35726607 0.051852852 -0.25950488 0.07097954
0002d0 c6 e6 88 3d 6a 7c 58 3e 30 89 ad 3e 61 22 0a 3e
       0.066846415 0.2114121 0.33893728 0.13489677
0002e0 7d 57 a8 3e 02 18 ab 3e 5f 50 17 be e8 d4 d0 bd
       0.32879248 0.33416754 -0.14776753 -0.10196859
0002f0 d5 78 71 3e 05 c3 35 3e 72 e5 ae 3e e7 fe 08 bd
       0.2358125 0.17750175 0.34159428 -0.03344622
000300 69 28 38 3e 3c 1e 8b 3e 54 08 94 3b 1e 86 8e be
       0.17984165 0.27171504 0.0045175944 -0.27836698
000310 42 9c 1c 3e 92 f4 72 be 45 02 06 3e 37 72 91 be
       0.15293983 -0.23726109 0.13086803 -0.28407452
000320 44 d5 fb bd ba 4a 8b 3e ce cd ec bd ab 28 91 3e
       -0.122965366 0.2720545 -0.11562692 0.2835134
000330 44 49 7e bd 61 2f de 3d aa db 1b 3e 53 41 86 be
       -0.06208159 0.108488806 0.15220514 -0.26221713
000340 99 07 9c bd a2 06 04 be 0a 14 87 be 1d 65 25 bd
       -0.07618637 -0.12893155 -0.26382476 -0.040379632
000350 f4 d3 a0 3d da b4 9a bd 17 09 d9 bc 1b 12 a5 be
       0.07852927 -0.07554026 -0.026493592 -0.32240376
000360 f7 6d 4e 3d 7f d4 36 be af c0 26 be 01 71 a7 be
       0.05039784 -0.17854498 -0.1628444 -0.32703403
000370 92 7c 59 be f4 2a 96 3c 2f 65 87 be b7 22 5e 3d
       -0.21238926 0.018331029 -0.26444384 0.054232325
000380 d4 c5 d6 3d ce 3f 57 3e e0 1a ae 3e a4 7c 62 3e
       0.104869515 0.21020433 0.3400488 0.22117859
000390 ac bf 97 3d e3 4a ab be da dd ca bd 97 c8 8f 3e
       0.074096054 -0.33455572 -0.09905596 0.28082725
0003a0 41 cc 44 3e ad da d6 3d 5b 8a bc 3d f8 35 77 3d
       0.19218542 0.10490928 0.09206077 0.060354203
0003b0 16 a1 9c 3e 8a 64 82 be 26 0d 93 bd d8 99 ab be
       0.3059165 -0.2546733 -0.07180242 -0.3351581
0003c0 cf 96 1a 3e bc bf 25 3e 36 3c 12 3e 35 82 86 3e
       0.15096591 0.16186422 0.14280781 0.26271215
0003d0 54 85 e4 bc c9 42 73 be cb 31 41 be 2f 8a 88 be
       -0.027895607 -0.23755945 -0.18866651 -0.26667926
0003e0 8b d8 1b be 1a 2d b5 3e 28 aa d6 3c 41 4f 9f 3e
       -0.15219323 0.35385972 0.026204184 0.31115153
0003f0 2f 55 9b be 31 4a 26 be ae 6c 1f 3e 5b 90 e1 3d
       -0.30338427 -0.1623924 0.15568802 0.11013862

actor.0.bias f4 [256]
000000 9a 17 fb bd 73 33 85 3e b4 f4 a7 3e 52 c6 a4 3d
       -0.12260361 0.26015815 0.3280388 0.08045639
000010 bf 17 78 be 53 24 1e 3e a4 c9 5d bc 0f e7 d1 bd
       -0.24227808 0.15443544 -0.013536844 -0.10249149
000020 db 72 90 3d 3c 0f 8e be bd ac 9b bc 34 f9 89 3e
       0.07053157 -0.27745998 -0.019003266 0.2694794
000030 ba 10 72 be eb e6 95 be ee 66 bc 3d e7 77 67 3e
       -0.23639193 -0.2927774 0.0919932 0.22604333
000040 2c de 80 bc 89 15 aa bd c7 86 2b 3e 3b db 22 3d
       -0.01573094 -0.08304889 0.16750632 0.039759856
000050 69 da 9b bc c4 27 a6 be c2 f4 92 be d0 72 b7 bd
       -0.019025045 -0.32452214 -0.2870236 -0.089574456
000060 be 5b 29 be 75 27 08 bc 7f 53 63 be 81 66 f9 3b
       -0.16538903 -0.008310189 -0.2219982 0.0076110964
000070 f7 84 ba 3d ca ad 29 3e fe 2f 40 3e c8 01 3b be
       0.09107392 0.16570202 0.18768308 -0.18262398
000080 a8 1e fd 3c 2d 41 b7 3e b8 94 3b 3e af a8 66 3d
       0.030898407 0.35791913 0.1831845 0.056313213
000090 c1 da 23 3e 41 0d d4 3d 1c 26 4b 3d e9 dc af be
       0.16001417 0.103540905 0.04959689 -0.3434823
0000a0 ef 5e 3f 3e 4e ca 2c bd a6 17 39 3e a4 29 2a bd
       0.18688558 -0.04218512 0.18075427 -0.041543618
0000b0 a0 aa 3c bd 16 30 1f be 48 cf 8f be 08 b3 21 bc
       -0.04606116 -0.15545687 -0.2808783 -0.0098693445
0000c0 e4 52 35 be 49 36 8d 3e 74 b8 a6 3e ba 98 d1 bd
       -0.17707402 0.2758048 0.32562602 -0.102342084
0000d0 c0 71 37 be 51 c3 45 3e c6 47 95 be a2 7b 9d bd
       -0.17914486 0.19312789 -0.2915632 -0.07689597
0000e0 9d 53 18 be 6a 0a 5d be fb 40 fe bd d3 3f 87 3e
       -0.14875646 -0.21586004 -0.12414738 0.26415882
0000f0 2f 32 99 be 59 7d 93 3e c8 d1 bd 3b 9d bc 2d bd
       -0.299211 0.2880657 0.00579283 -0.042416204
000100 b4 8d b7 3d 16 48 75 be f7 ff 81 be f0 7b a0 bd
       0.089625746 -0.2395328 -0.25390598 -0.07836139
000110 4b 31 b5 3e 99 35 cf bd 33 99 76 3e fd 1f 02 be
       0.3538917 -0.10117645 0.24081878 -0.12707515
000120 69 25 a2 be 94 95 8e be 5b 68 7f be 2d d9 0e be
       -0.31669167 -0.27848494 -0.24942152 -0.13950033
000130 3d a5 a4 be 50 27 ab 3e 2a 77 0c 3e e7 cc ac be
       -0.32157317 0.3342843 0.13717332 -0.33750078
000140 6c 0a 15 be 10 84 61 3e e0 a0 87 be d5 ee 13 3e
       -0.14554757 0.22023034 -0.26489925 0.14446576
000150 12 4e 5b be cc 94 cc bd 6c c1 3b be 76 41 84 3d
       -0.214165 -0.09989318 -0.18335503 0.06457798
000160 7e 37 04 be cd 1e 68 3e 4a 93 22 3e c7 94 35 3e
       -0.12911794 0.22668 0.15876499 0.17732535
000170 0b 53 4f 3e f6 57 85 3e 6d 39 a2 be 2c 6e f2 3b
       0.20246522 0.2604367 -0.31684437 0.0073983874
000180 25 4d ed 3d 26 7c 32 3e 18 7b 7a be 53 65 cb 3d
       0.1158698 0.17430171 -0.24461019 0.099314354
000190 01 e0 b4 be 8a 81 21 be 2c dc eb bd c6 ce 24 bc
       -0.3532715 -0.15772071 -0.11516604 -0.010059064
0001a0 41 3d 8d 3e e6 88 98 3e f5 c5 17 bc e4 e0 82 3d
       0.27585796 0.29791945 -0.009263505 0.06390551
0001b0 52 8e 3f bd d0 b7 82 3d 76 1b 8e bc 81 f2 a9 3b
       -0.046766587 0.06382716 -0.017347079 0.0051863794
0001c0 19 b0 2e be cb 6e 86 3e 90 f4 91 3e b8 7a e4 3d
       -0.17059363 0.26256403 0.285069 0.11156219
0001d0 d3 86 63 3d bc ad e7 bc 3e 95 57 be a2 ba a0 3e
       0.0555485 -0.028281085 -0.21053025 0.3139239
0001e0 10 10 f3 bd b9 c6 30 3e e0 ab a2 bd f9 81 a2 3e
       -0.11868298 0.17263307 -0.07942939 0.31739786
0001f0 d2 a5 74 3e f0 ed d3 3d 76 fc 4e be 79 9d 41 be
       0.2389138 0.10348117 -0.20213494 -0.18907727
000200 4c 7d d3 3d b8 96 30 be 03 54 9c 3e e2 86 33 be
       0.10326633 -0.17244995 0.30532846 -0.17531922
000210 eb 71 e3 bb 5c ac 9b 3e e4 92 af 3d c8 a2 b4 3e
       -0.0069410703 0.30404937 0.08572939 0.35280442
000220 50 79 4e bc c0 bc c8 3d db 17 73 3e 5d 7e a7 be
       -0.012602165 0.09801626 0.23739569 -0.32713595
000230 87 5b b0 be b9 ff b8 bb 82 df a3 3e 7c 87 c1 3d
       -0.3444483 -0.005645719 0.3200646 0.0944967
000240 27 1e 94 3d ed 13 c0 bd a0 83 aa bd f2 01 93 be
       0.072323136 -0.093788005 -0.08325887 -0.28712422
000250 72 40 20 3e 98 4e a0 bd e0 b8 7c 3c 36 97 b2 3d
       0.15649584 -0.078274906 0.015424937 0.087202474
000260 f6 75 86 3d df 62 75 bd 4a ed d6 3d 31 db bd bd
       0.06565468 -0.059908744 0.10494478 -0.09270323
000270 37 ad 31 bd e1 fd 94 3e dd 10 6c be 0a 31 40 3e
       -0.04337808 0.29099944 -0.23053308 0.18768707
000280 ed 50 4c be 89 4e a2 3d 96 68 7f 3e e7 b7 85 bd
       -0.19952746 0.07925136 0.2494224 -0.06529217
000290 d3 49 d9 3d 85 0b e1 3d 41 a6 6c 3e 8c fb 4a be
       0.10609784 0.10988525 0.23110296 -0.1982252
0002a0 d2 c7 bd bc de 80 95 3d af 5e ec bd 4a 31 ab 3e
       -0.02316657 0.0729997 -0.11541497 0.33436042
0002b0 51 aa 49 3e 67 a6 ac 3e 4a d8 a2 bc a9 46 81 3e
       0.19693877 0.33720705 -0.019878525 0.25249222
0002c0 ef d2 ac be 5c ae 1a 3e c9 3c 8a 3d 35 59 97 be
       -0.3375468 0.15105575 0.06749875 -0.29560247
0002d0 54 8a 34 3e 4f 73 23 be c1 d2 89 be 41 65 a7 3e
       0.17630893 -0.15961955 -0.26918605 0.32694438
0002e0 9b 82 31 3e 0a 05 90 3d 95 66 1e bd b8 a8 db 3d
       0.17334978 0.07032211 -0.03867205 0.1072554
0002f0 4a b3 53 3e 52 82 b6 bc 73 84 db 3d 8d 53 b4 3e
       0.20673862 -0.022278938 0.10718622 0.35219994
000300 18 33 5c be 65 24 7e be 94 45 3f be 8a 22 ca bd
       -0.21503866 -0.24818571 -0.18678886 -0.09869869
000310 50 16 8e be 89 96 78 3d c9 a4 3c be c5 f3 f1 3d
       -0.27751398 0.060690437 -0.18422236 0.118140735
000320 fe b5 1a bd e7 a1 ab 3e f2 27 90 be 9a d8 38 bb
       -0.037771218 0.3352196 -0.28155476 -0.0028205276
000330 ce 15 83 3e 18 04 37 3e 2a d9 8c be fd d6 67 be
       0.25602573 0.17872655 -0.27509433 -0.22640605
000340 57 4d 8e be 48 da d5 bd cb fa 43 3d fe 10 a5 be
       -0.2779338 -0.104420245 0.047846597 -0.32239527
000350 2d bf 30 be 87 7f 94 3e 22 7c 1d be 46 6e f7 bc
       -0.17260428 0.29003546 -0.15379384 -0.03020395
000360 4a 87 33 be 2d 10 61 bd 1c c7 67 be 91 43 8c be
       -0.17532077 -0.054947067 -0.22634548 -0.273953
000370 cf 8a 0c be 9e 02 82 3d 3e 04 24 3e 90 dc aa be
       -0.13724826 0.063481554 0.16017243 -0.333714
000380 7e aa 40 3e 46 66 c8 bd 61 d0 8c be 54 77 43 3e
       0.18815038 -0.09785132 -0.2750273 0.19088489
000390 ea 36 67 3e bc 81 c0 3d ec 0b ad 3e 99 1e b2 be
       0.22579542 0.09399745 0.33798158 -0.3478897
0003a0 d8 a4 bf bc 43 a7 a4 3e 50 7c 01 3e 4a e9 46 be
       -0.023394033 0.3215886 0.12645078 -0.1942493
0003b0 76 c9 8c 3d b0 eb a3 be 53 a5 32 3e 64 27 a6 bd
       0.06874363 -0.32015753 0.17445879 -0.08112982
0003c0 21 23 ed 3d bc c9 07 bc a5 7d 87 3e 20 bb 1b be
       0.11578966 -0.008287843 0.26463047 -0.15208101
0003d0 ce 02 10 3d 4f a8 91 3e 5e 2c a9 bd 70 27 99 bd
       0.035158925 0.28448722 -0.082604155 -0.07478225
0003e0 25 cb 67 3d 7b c2 05 be 30 55 18 3e e7 59 e5 3b
       0.056590218 -0.1306247 0.14876246 0.0069992426
0003f0 e6 71 b8 3b 6c 68 a9 3d 56 87 84 3e 44 55 e2 ba
       0.005628812 0.0827187 0.25884503 -0.0017267843

actor.2.weight f4 [128, 256]
000000 ea 9d 87 bd 77 06 28 3c 46 9c 37 bd 58 02 69 3c
       -0.066219166 0.010255448 -0.04482677 0.01422175
000010 08 68 fd bc 1c e8 ac bc d7 40 95 bc 09 b7 4f 3d
       -0.030933395 -0.021106772 -0.018219395 0.050711665
000020 84 20 29 3c cc 39 0e bd a9 a3 43 3c a6 c0 03 bd
       0.010322694 -0.03472309 0.011940875 -0.032166146
000030 78 e9 36 bc 72 82 ae 3c f3 2b 5c bd f4 a3 4d bc
       -0.011164062 0.021302436 -0.05375285 -0.0125512965
000040 a9 53 32 bd 6a 60 51 bd 59 5b 42 bd ff 7a ec bb
       -0.043536816 -0.05111734 -0.047450397 -0.0072168107
000050 40 5c 6d 3d 68 59 5c bd fb e5 68 bd 44 99 49 bd
       0.057949305 -0.053796202 -0.05685995 -0.04921843
000060 e8 31 37 bc b8 44 bf 3c 56 b1 2b 3d db b6 da bc
       -0.011181332 0.023348197 0.041917168 -0.02669852
000070 6c 22 55 3d e6 e3 25 3d c6 52 5f 3d 6f 8f 9f bb
       0.05203478 0.040500544 0.0545223 -0.0048693935
000080 cd 40 65 3c 4d f8 72 bd e0 c7 3e 3d 41 83 62 3d
       0.0139925005 -0.05931883 0.046577334 0.055300955
000090 d1 d2 64 bc c7 0b a8 bc 1f 61 5c bc 40 ba 44 3d
       -0.013966278 -0.020513428 -0.01345089 0.048029184
0000a0 e1 84 0e bc a2 e5 05 3d ca 44 67 bd 86 d4 24 bd
       -0.008698673 0.032689698 -0.056462087 -0.04024174
0000b0 8e 03 f5 bc 62 82 02 3d ab 83 5b 3d c0 2a 54 3c
       -0.029908922 0.031862624 0.053592365 0.0129496455
0000c0 2d 6d 0e 3d 90 70 4a 3c 71 cf 96 bb af a4 87 3c
       0.034772087 0.012355939 -0.0046023657 0.01655802
0000d0 e0 28 77 3b c8 b5 4d bc 1e f2 81 bd 97 0d 52 3d
       0.0037713572 -0.012555547 -0.06345008 0.05128249
0000e0 2f e0 2e 3a e4 95 33 bd 70 41 b3 bb 8a c1 1c 3d
       0.0006670979 -0.04384412 -0.0054704472 0.03827051
0000f0 94 59 0a bd d2 97 8a bc 53 41 bb bb 33 65 85 bd
       -0.033776835 -0.016918097 -0.0057145744 -0.06513443
000100 ef d2 2d bd c4 2d b4 3c 78 62 0c bc 95 93 54 bd
       -0.04243749 0.021994479 -0.008568399 -0.051898558
000110 74 ef 8b bc 6d cd 27 3d 6d 57 11 3c c2 7d 72 3d
       -0.017081954 0.040967394 0.008870942 0.059201963
000120 00 ae 74 bb 3b 56 e4 3c e5 cc 84 bc 20 5e 57 bb
       -0.0037335157 0.02787315 -0.016210983 -0.00328625
000130 26 ac 2b 3d 4d 68 cf bb 9d c5 8f bc 10 82 18 bd
       0.04191222 -0.0063295723 -0.017550284 -0.037233412
000140 32 4e 10 3d e3 c6 69 bc c8 63 41 3d 2f a0 53 bc
       0.035230823 -0.01426861 0.0472143 -0.012916609
000150 d4 bf 7a 3d 7a 8d 7a bd e8 a0 37 bd 8c 88 81 bd
       0.061218098 -0.06117008 -0.044831187 -0.063248724
000160 b6 e6 3e bd c8 d5 2b bd 6c 47 51 3d e5 7c 73 bc
       -0.04660674 -0.041951925 0.051093504 -0.01486132
000170 10 7b 52 3d b1 05 41 bd 0d 93 4f bb b5 7e 80 3d
       0.051386893 -0.04712457 -0.0031673342 0.062741674
000180 ce 7e d7 3c a4 97 f7 3c 7b 7b 4d 3c 30 2c 27 3c
       0.026305582 0.030223675 0.012541647 0.010203406
000190 c2 48 21 bd 70 18 2a bd ca dc 44 bd af 6a 54 bd
       -0.039376028 -0.04152721 -0.048062123 -0.051859554
0001a0 d7 67 6c 3d 81 ae 1b 3c cd 08 66 3d c3 8b 10 bc
       0.057716217 0.009502054 0.056160737 -0.008822384
0001b0 25 48 64 bd c2 4d c3 3c dd 4d c5 bc 65 4c ad 3c
       -0.055732865 0.023840789 -0.02408498 0.021154592
0001c0 f3 df 02 bd 0f 26 39 bd fd 9f cc 3a 07 95 23 3d
       -0.031951856 -0.04520231 0.0015611645 0.039937045
0001d0 e3 a5 bf 3c cf 94 22 3d 9a cd 6d 3d 2f 3a 6a bc
       0.02339453 0.039692696 0.058057405 -0.014296099
0001e0 7d ba 93 3c 29 f1 b5 bc 52 fd 39 3d 97 c5 ef bc
       0.01803326 -0.02220972 0.0454076 -0.029269023
0001f0 92 91 1b bc 06 4a 88 bc 35 55 32 bd 3f b3 ee 3c
       -0.009495156 -0.01663686 -0.04353829 0.029138206
000200 2b d1 64 bb 86 4f 1c 3d d5 fa 55 bd 68 4c 5c bd
       -0.0034914713 0.038161777 -0.052241165 -0.053783804
000210 c5 15 e9 3c 8b a6 c7 3c 4d 0f f4 3c db 72 5b bc
       0.028452763 0.024371406 0.029792452 -0.013394083
000220 6a 19 03 3d db 4f 59 bd 10 43 16 bd 10 13 b5 bc
       0.03200666 -0.05305467 -0.03668505 -0.022103816
000230 4c b8 6c bd bb 10 c4 3b 6d 23 0a 3d 74 be 0c 3d
       -0.057792947 0.0059834397 0.03372519 0.034361318
000240 dc 24 96 3c dc 1b 3d 3d 30 27 21 3d 67 3c 9a 3c
       0.018328123 0.046169147 0.039344013 0.01882763
000250 46 5b 40 3d 09 b2 6c bd 27 73 c8 3c e6 c0 f7 bc
       0.046962045 -0.057786975 0.024468971 -0.030243348
000260 34 9a 71 3d 37 b6 34 3d 80 18 10 bd ce 33 22 3d
       0.05898495 0.044119086 -0.035179615 0.039600186
000270 a8 90 77 3c e5 61 0a 3d 41 52 80 bd 0f 34 88 bc
       0.015110172 0.033784766 -0.06265689 -0.016626386
000280 c1 be 87 bd 0c 43 3c 3d 75 25 1c 3d f4 75 79 bd
       -0.0662818 0.04596238 0.03812166 -0.060903504
000290 27 ce c5 3c 05 6a 93 bc da 17 70 bc d0 19 89 bc
       0.024146153 -0.01799489 -0.014654124 -0.016735941
0002a0 27 94 5a 3c 41 93 4c bd 20 3f 6b 3d 96 1c 64 3d
       0.013340986 -0.04994512 0.057433248 0.055691324
0002b0 57 05 67 bb 2b 1c 8f bc 0d b7 57 3d 51 11 18 bd
       -0.0035250986 -0.017469486 0.052664805 -0.03712589
0002c0 56 96 6a 3d 0c 2e 17 bd 2e f7 cb 3c e2 6c 31 3d
       0.057272278 -0.036909148 0.024898138 0.04331673
0002d0 ce ba 60 bd 6d 01 02 bd d4 c3 00 bd 55 7f fc 3c
       -0.05486565 -0.03173964 -0.031436756 0.030822435
0002e0 0f 60 50 bb f5 8d 3f bb b4 95 57 3d ce a6 f8 bc
       -0.0031795537 -0.00292289 0.052633002 -0.030352976
0002f0 49 8d 69 3c 65 c8 8b 3c e5 bf 9b bc a0 4a af bc
       0.014254876 0.017063329 -0.0190124 -0.021397889
000300 27 80 4c 3d fa f9 2e bd b0 dd 74 bd 9c c8 6d 3d
       0.049926903 -0.042718865 -0.05978173 0.058052644
000310 a4 13 78 3d 13 df 76 3d 08 79 85 3b b4 fd 2a 3d
       0.060565606 0.060271334 0.004073266 0.041745856
000320 34 60 cf bc 7f 2d 27 3d b9 1e 22 3d d0 c9 d1 3c
       -0.025314428 0.040814873 0.03958008 0.025608927
000330 41 92 47 bd 2d 8d 71 bc a8 4a 7a bd 9b ef 90 3c
       -0.048723463 -0.014743132 -0.061106354 0.017692378
000340 45 af 0d bd 1c b8 15 3d df 0c 68 3c 70 88 b9 bc
       -0.03459098 0.036552534 0.014163225 -0.022648066
000350 88 1f 3b bc 65 bc 38 3b 8a 63 5b 3d da e5 c8 3c
       -0.011421092 0.0028188464 0.053561725 0.024523664
000360 64 71 98 3c 34 30 42 3c 60 46 6a 3d c7 cc 75 3d
       0.018608756 0.011852313 0.05719602 0.060009744
000370 6c 9a e6 bc f2 65 64 3d 9a c4 33 3d d0 74 bc 3b
       -0.028149806 0.055761285 0.043888666 0.00575123
000380 ff 49 00 bd 02 8e f3 3b a1 66 e0 3a eb 5b 08 3d
       -0.03132057 0.0074327 0.001712043 0.033290785
000390 43 e8 d8 3b 9e 5b 68 3d 2a 39 2a bd 54 f7 7f 3d
       0.0066194846 0.056727998 -0.041558422 0.06249173
0003a0 36 26 25 3d a9 82 9c 3b 5b 83 1c bc 0c c8 49 3d
       0.040319644 0.004776318 -0.009552802 0.049263045
0003b0 fd b6 25 3d 2e bd 6c bd 0e 3e 0d 3d 6a 58 6e 3d
       0.040457714 -0.057797603 0.034483008 0.058189787
0003c0 e0 aa a4 3b bd 84 a3 bb 42 32 d2 3c b3 19 47 3d
       0.0050252527 -0.004990189 0.02565873 0.048608493
0003d0 e5 c8 33 bd 18 d2 cd bc 14 24 39 bd 3a 05 22 bd
       -0.04389276 -0.025124595 -0.045200422 -0.039555766
0003e0 94 95 13 3d 98 46 c7 3c 17 8a 01 3d bf c8 7f bd
       0.03603132 0.024325654 0.031625833 -0.062447306
0003f0 6a 80 1d 3d 59 2a 4c 3a 9e e0 c9 bc e0 2c 98 bc
       0.038452543 0.0007788293 -0.024643239 -0.018576086

actor.2.bias f4 [128]
000000 40 bd 48 bd a3 43 9d 3a a6 4a 8a 3d eb 67 32 3d
       -0.049008608 0.0011998307 0.06752519 0.043556135
000010 a9 bd 3e 3d b4 55 50 3c 8f eb 4d bd 8e a4 b5 3c
       0.046567593 0.012715746 -0.050273474 0.022173192
000020 29 7d 81 3a e6 09 69 bd 75 91 ff bc 12 92 6c bd
       0.000987922 -0.056894206 -0.031197289 -0.05775649
000030 be 1e b9 3c 09 54 02 3c bd 71 5d 3d 2f b3 14 bd
       0.022597667 0.007954606 0.054063547 -0.036303695
000040 ef d8 6a bd 5c ae 47 3d f9 6e 13 3d 97 16 af 3d
       -0.05733579 0.048750266 0.035994504 0.085492305
000050 7d 1c 5e 3d e8 6f 31 bd bd c7 8f 3c 48 81 2f 3b
       0.054226387 -0.043319613 0.017551297 0.0026779938
000060 2b 05 30 3d ec 50 5f bd b4 84 9a bc c6 83 be 39
       0.04297368 -0.054520532 -0.018862106 0.00036337803
000070 d4 44 bd bc 78 12 23 3d a9 d6 05 bc 1b 53 48 bd
       -0.023104109 0.039812535 -0.008168855 -0.04890738
000080 3c 62 96 3d 7e 75 32 3d 1c 56 45 3c 12 18 42 3d
       0.073429555 0.04356908 0.012044456 0.047386236
000090 69 36 53 bd f5 74 c1 bc 00 dc 88 bc e6 c3 61 3d
       -0.05156556 -0.02361534 -0.016706467 0.055118464
0000a0 79 5b f9 bc 5e 87 8e 3d b1 e3 02 3d 0d 97 cd bc
       -0.030439125 0.06959413 0.031955425 -0.02509644
0000b0 70 08 70 bc df 59 ea bb 2d 46 a1 bc fb 4b 32 bd
       -0.014650449 -0.0071518268 -0.019686783 -0.043529492
0000c0 07 2f 89 3d 19 a0 80 bb a9 6b b0 3c 15 1c 34 3b
       0.06698423 -0.003925335 0.021535711 0.0027482559
0000d0 22 dd 20 bd 21 76 47 3d 20 db 9b 3c 60 9f 01 3d
       -0.03927339 0.04869664 0.019025385 0.031646132
0000e0 4e f2 f0 3b b0 49 21 bd 47 1b 02 3c f9 eb d6 bc
       0.0073531037 -0.039376915 0.007941074 -0.026235567
0000f0 f2 fb 64 bd 4f 75 0e 3c 12 e1 b4 3a 39 79 55 3d
       -0.055904336 0.008694961 0.0013799986 0.05211756
000100 cf 12 08 bb 1e 62 b0 bb 52 21 51 3d b3 7f 12 bd
       -0.0020763164 -0.00538279 0.051057167 -0.035766315
000110 35 a4 d2 3c c3 69 ac bc 39 88 11 bd 35 b5 56 3c
       0.025713066 -0.021046525 -0.035530303 0.013104727
000120 2f e2 dd 3c 15 60 3a bd b4 92 3c bc 63 23 19 bd
       0.027085392 -0.045501787 -0.011509586 -0.037387263
000130 53 42 2d 3d d0 51 7c bd b3 25 37 bb 4d fc 70 3d
       0.04229958 -0.06160146 -0.0027946054 0.058834363
000140 42 d6 35 3c 74 4b 30 bd 32 ac 0e 3d 41 1e 6a bc
       0.011098446 -0.043040708 0.034832187 -0.01428944
000150 ba e4 52 bd ce 9b 71 bb a2 fd 57 3d c2 92 a4 3d
       -0.051487662 -0.0036866548 0.052732117 0.08035804
000160 d0 e6 2f bd a6 49 dd 3c ef 80 64 bd 4c ae c0 3c
       -0.04294473 0.027012657 -0.055787023 0.023520611
000170 7c 72 1d 3d b2 d2 67 3d cd 4f 39 3d 92 fb 8b bc
       0.03843926 0.05659742 0.04524212 -0.017087732
000180 da 1f 4c bd 85 08 6c 3c c6 a4 a1 bc ac b9 31 3d
       -0.049835064 0.014406328 -0.01973189 0.04338996
000190 7d 69 55 3d 9c ee 80 3d ad a6 5c 3c 27 94 73 bd
       0.052102555 0.06295511 0.013467473 -0.05946746
0001a0 80 c9 66 bd 98 21 54 3d 70 f9 64 bd 86 a8 9a bc
       -0.05634451 0.05178985 -0.055901945 -0.018879186
0001b0 ee ae 1a bd 5d 6f 0e 3d 1c 8b a1 3b 77 ac 12 bd
       -0.037764482 0.034774173 0.004929913 -0.035809007
0001c0 3e fa d6 3c 91 e7 0a 3d 85 f7 02 3d 68 d9 a4 3c
       0.026242372 0.033912245 0.031974334 0.020123199
0001d0 96 aa 7c 3d da ef 53 3d 36 cc 0e 3d b9 0c 24 3d
       0.06168612 0.051742412 0.03486272 0.040051196
0001e0 64 75 cc bc f9 7a c0 3c 28 92 36 bc 7e 8a 54 3d
       -0.02495832 0.023496138 -0.011143245 0.05188989
0001f0 0e 60 2b 3d 8b b0 4a 3d 55 9c 2e bd 91 20 82 bd
       0.04183965 0.04948477 -0.04262956 -0.06353868

actor.4.weight f4 [4, 128]
000000 7e ca 54 3d 82 9c 21 3d 92 f1 e4 bc 04 5c a9 3a
       0.051950924 0.039455898 -0.027947221 0.00129211
000010 43 2d 90 bd ca 53 86 bd 4f 33 78 bd 81 37 78 bb
       -0.07039883 -0.0655895 -0.060595807 -0.003787488
000020 bf c7 82 bd 56 98 89 3d 52 db 7e 3c f4 a9 4c 3d
       -0.06385755 0.06718509 0.01555522 0.049966767
000030 1e da 8e 3d 71 ee 99 3d 19 71 72 bd 54 74 f0 bc
       0.06975196 0.07516182 -0.05918989 -0.029352345
000040 77 f8 a6 3d df 24 96 bc 83 15 c0 3c c9 85 61 bd
       0.0815286 -0.018328128 0.023447758 -0.055059228
000050 28 73 ed 3c 2a 72 52 3d 94 36 99 bd 86 d9 7e 3d
       0.028985575 0.051378407 -0.07481113 0.062219165
000060 fd 61 54 bd 86 c9 a2 bd 56 12 84 3d e3 17 59 3d
       -0.05185126 -0.07948594 0.0644881 0.053001296
000070 58 bc ad 3d 7f d7 c1 3c 1d 26 ec bc b4 ca aa 3c
       0.08483189 0.023662327 -0.028826768 0.02084861
000080 b5 ff 97 bd 01 75 a0 3d 40 dc 38 bd 86 fd 9f 3d
       -0.07421819 0.07834817 -0.04513192 0.07812028
000090 e7 38 21 3d f3 bf 87 bc a2 a1 a3 bd a8 9c 84 3d
       0.039360907 -0.01657102 -0.079898134 0.06475192
0000a0 99 3b 94 bd 9e fb db bd 78 d8 71 3d a6 a5 94 3c
       -0.0723793 -0.107413515 0.05904433 0.018145394
0000b0 4d 30 25 3d e9 9b 03 bd f2 90 d4 3c db 2d 8d bd
       0.040329266 -0.03213111 0.025948022 -0.06893512
0000c0 10 e9 8b bd b1 9d 2f bd b9 88 63 3c 88 d3 81 bd
       -0.068315625 -0.042874996 0.013887578 -0.063391745
0000d0 60 7a 72 bd ad c3 2d bc 09 c5 14 3d 45 7d 57 3d
       -0.059198737 -0.010605735 0.03632072 0.0526097
0000e0 0b f7 b0 bd e4 9d a4 bd 11 61 98 3d 7d 69 7b bb
       -0.0864087 -0.08037928 0.07440389 -0.0038362436
0000f0 00 27 b0 bd 6d 8f 94 bd ce 14 ca bd e4 08 22 3d
       -0.08601189 -0.07253919 -0.098672494 0.03955926
000100 45 19 b9 bd 5d 65 49 3d b2 ae cd 3c 54 1e 3c 3d
       -0.09038023 0.049168933 0.025107715 0.04592736
000110 c9 0f 62 bb 2b 85 bd bc 34 0a 6d 3d 51 2b 31 3d
       -0.0034494272 -0.023134788 0.05787106 0.0432542
000120 44 7a 04 3d 7e a6 04 3d 3d 45 24 bd 8e 3f 78 bb
       0.032343164 0.03238534 -0.040105093 -0.0037879678
000130 ed 5d 85 3d 17 aa 8a 3d 9f 21 5b bd 86 f9 74 bd
       0.065120555 0.06770723 -0.05349886 -0.059808277
000140 1e 39 20 bb 16 2d 77 bc c5 d7 b0 bd b0 57 de 3c
       -0.0024448107 -0.015086433 -0.08634905 0.027141422
000150 90 eb 66 3d 26 f4 72 bd 80 d3 12 3d 89 15 ad bd
       0.056376994 -0.05931487 0.035846233 -0.08451373
000160 6b f7 22 bd 81 b9 cd 3c 8b b8 a8 bc 6f 71 ea bc
       -0.039786737 0.02511287 -0.02059581 -0.028618542
000170 76 68 40 3d 14 aa 09 3d 69 e4 2f 3d 9e 4f a1 bd
       0.04697462 0.033609465 0.04294244 -0.07876514
000180 76 a3 34 bd 0e cc 48 bd df 89 2e 3d cd d8 33 3d
       -0.0441012 -0.049022727 0.042611953 0.04390793
000190 d7 2a 12 bb cf f8 a6 bd c9 bb 47 bd 61 20 9b 3d
       -0.0022303367 -0.08152925 -0.04876307 0.07574535
0001a0 a6 6d 6a 3d 64 3e 19 3d ea 23 16 3c cd 08 ee bc
       0.057233475 0.037413016 0.009163836 -0.02905693
0001b0 40 6f ec 3c df 3d 08 3d 17 46 04 3d be be 92 bd
       0.028861642 0.03326213 0.032293405 -0.071652874
0001c0 e6 36 19 3d 34 58 92 bd 0f 67 22 bd 89 f3 e4 3c
       0.03740587 -0.0714573 -0.039649066 0.027948158
0001d0 ff 73 8b bd 13 38 d8 bd 73 f3 89 bd e0 63 80 bd
       -0.06809234 -0.1055757 -0.067358874 -0.0626905
0001e0 78 03 2b 3c d7 b6 39 bd d9 a3 1c 3b c0 d7 ce bd
       0.010437839 -0.045340385 0.0023901372 -0.10099745
0001f0 77 42 52 3d 81 cc 38 bd 13 38 27 3d 17 4e b8 3c
       0.051332917 -0.045116905 0.04082496 0.022498174
000200 45 9c 76 bd bd 2c 6a 3d ab a8 a7 3d 44 3f 55 3d
       -0.060207624 0.057171572 0.08186468 0.052062288
000210 2b ca 2c 3c 71 66 1f bd 17 3c 0c 3d 06 a7 90 bd
       0.0105462475 -0.038916055 0.034236994 -0.07063107
000220 39 11 06 bd 9c 2b bb 3b b2 79 bf bc d4 b1 07 bb
       -0.03273127 0.0057119858 -0.023373459 -0.002070536
000230 06 8f 5a bd 9b b7 80 bd 03 87 9d 3c da 94 a9 bd
       -0.053359054 -0.0628502 0.019229418 -0.08280344
000240 95 b8 19 bc 7b 82 a3 3d 08 d3 1a 3d 7c ec 41 3c
       -0.009382387 0.079838715 0.03779891 0.011836167
000250 3c 15 8e 3d 39 c1 a0 bd 91 ba 33 bd b4 35 4e 3c
       0.06937644 -0.07849354 -0.043879095 0.012586046
000260 82 ab 07 3d 20 ed 39 3d 3d 5c 42 bd 83 cf 6a 3d
       0.033122547 0.045392156 -0.047451247 0.057326805
000270 9d 60 9c bd f6 c2 7e bd 84 60 79 3d 69 71 d0 bc
       -0.07635615 -0.062197648 0.06088306 -0.025444703
000280 44 f9 8d bd f7 ba 11 3d 96 f5 82 bd 6f b9 80 3d
       -0.06932309 0.035578694 -0.06394498 0.06285369
000290 10 9c ad bd fa ce b7 3d ee 06 b5 3c 56 ae 8f 3d
       -0.08477032 0.089750245 0.02209803 0.07015674
0002a0 6a 76 64 3c 95 c1 91 bd 99 68 c7 3c 99 e0 4a bd
       0.013944248 -0.07117001 0.024341868 -0.0495306
0002b0 ea c7 9b bc 0e 3d 44 bd 94 37 a8 3d 05 f7 ca 3c
       -0.019016225 -0.04790979 0.08213726 0.024775991
0002c0 cd ea 48 bd ed 7f c9 3c 96 21 55 bd 5f d4 0b bd
       -0.04905205 0.024597133 -0.052033983 -0.03413808
0002d0 54 e0 79 3d ca 4b 92 3d d9 4d 8a bd f6 d8 b1 3d
       0.06100495 0.07143362 -0.067531295 0.0868396
0002e0 2b e8 2a bd 34 e0 34 3d a0 dd 9a ba 91 18 8f 3d
       -0.04172532 0.04415913 -0.0011815317 0.069871075
0002f0 9f 5c 82 3c 72 fb b3 bc c5 70 dc 3c 3f f1 af 3d
       0.015913306 -0.021970484 0.026909241 0.08590936
000300 48 d6 2b bd 7f 0c a6 3c c1 3c 07 bd 29 41 71 bd
       -0.0419524 0.02026963 -0.033016924 -0.058900032
000310 61 e3 a3 bd 54 ca 9c bd f2 f0 74 3a 96 b2 0f 3c
       -0.080023535 -0.076557785 0.0009343765 0.008770606
000320 e0 66 a4 bc e6 a0 78 bd e0 56 5a bd 44 5c 6e 3d
       -0.020068586 -0.06070032 -0.053305507 0.05819346
000330 ae 59 20 3d 3f 90 15 bb 12 9f 1c 3d af 5e 52 bd
       0.039148025 -0.0022821573 0.03823764 -0.05135983
000340 55 05 91 bd 5b 29 2a bc 32 73 b8 bb 13 d7 5c bd
       -0.07081095 -0.0103858365 -0.0056289667 -0.05391605
000350 17 bb 9b bd 1b 3a 77 bd b3 dc 03 3c a5 d3 4c 3d
       -0.07604044 -0.060358148 0.008048224 0.050006527
000360 45 9f b3 3b bc 6d 28 bd 76 c2 2e 3d 25 8c 58 bd
       0.005481633 -0.041120276 0.04266592 -0.052868027
000370 3a 76 2b 3c 3e 5a 0a bc f6 b5 ad 3d 9e 6c 7c bb
       0.010465199 -0.008444367 0.08481972 -0.003851689
000380 ba be 32 bd 7c 13 94 3c 29 f6 b8 3c 98 0b 5e 3c
       -0.043638922 0.018075697 0.022578316 0.013552569
000390 df 18 a6 3d 6f 05 bd 3c b9 6d 1f 3d bd c6 e4 ba
       0.081102125 0.02307388 0.038923 -0.0017454248
0003a0 fd 41 4c bd 29 a8 7e bd 2d be 91 3d 53 48 84 bb
       -0.04986762 -0.06217209 0.07116351 -0.004036942
0003b0 d3 af b2 bd 5d ae 0e bd bc 0a 8e bd 83 8d e9 bc
       -0.08724942 -0.034834255 -0.06935641 -0.02850986
0003c0 84 81 6c bd 07 ae 8b 3d fb 06 bd bc 58 9f 39 3d
       -0.057740703 0.068203025 -0.023074618 0.045317978
0003d0 af 2a 71 bc a9 97 c2 bb 08 e0 8d 3d 9a 58 f4 3c
       -0.014719649 -0.0059384895 0.06927496 0.029827405
0003e0 e6 eb db bb 72 87 ad 3c a2 2e 27 bd 8e 48 93 3c
       -0.006711471 0.02118275 -0.040815957 0.017978933
0003f0 5b e6 26 bd 92 aa dc bc ed 8c a8 bd 28 f9 91 bd
       -0.040747028 -0.026936803 -0.082300045 -0.07127601

actor.4.bias f4 [4]
000000 dd 5a a0 bd d7 d3 fa 3c ae cc 92 3d d1 b4 a0 3c
       -0.07829831 0.030618591 0.07167946 0.01961747

critic.0.weight f4 [256, 8]
000000 17 14 a1 3e 46 ce 95 be 46 8d 85 3e 56 b8 95 be
       0.3146064 -0.29258937 0.26084346 -0.292422
000010 3e a5 26 3e 42 0d af be be 96 b6 bd 7d 23 d2 3d
       0.16273972 -0.34189802 -0.089154705 0.10260675
000020 bb c5 e2 bc e6 7d 3f bd 0f 5d 25 3e b1 db 76 3e
       -0.027682176 -0.046750925 0.1614878 0.24107243
000030 56 ab 80 be 53 df 89 3e 0c f6 73 3e 13 4f 9b be
       -0.2513072 0.26928195 0.23824328 -0.30333766
000040 ec 3f a3 be f5 49 98 bd bb 6b 6c 3e 61 9c 9e 3e
       -0.31884706 -0.07435981 0.23087971 0.30978683
000050 f9 3d 06 be d5 7f 22 3e a0 08 91 3e 04 26 96 3e
       -0.13109578 0.15869077 0.28326893 0.2932588
000060 a5 36 e8 3c eb c0 ee 3d 83 ef 84 3e 33 5d 90 3c
       0.028346369 0.1165789 0.25963983 0.017622566
000070 20 80 38 3d 23 04 9e 3e 4d 5e 2a 3d 36 4d d2 3d
       0.045044065 0.3086253 0.04159384 0.10268633
000080 64 e6 7d be bc 29 98 be 35 6f 73 3e 5b 6e da 3c
       -0.24794918 -0.2971934 0.23772891 0.02666395
000090 c8 4d a7 be 11 01 60 3e 30 de 4e 3d 54 c0 e0 3d
       -0.3267653 0.21875407 0.050504863 0.10974184
0000a0 40 fe f8 bd b4 cd 84 3e 94 3e 57 be 23 cd 5d 3e
       -0.12157869 0.2593819 -0.21019965 0.21660285
0000b0 55 17 f9 bc e8 3b 41 bd 39 af 60 be 84 21 71 3e
       -0.030406633 -0.04717627 -0.21941842 0.23547941
0000c0 0e 6b f9 3d 5f 0f 96 be 92 e9 45 3d 33 20 9c be
       0.12178622 -0.29308602 0.048318453 -0.30493316
0000d0 31 be a7 3e 89 32 b5 3d 3b ef 62 3e 9c 6e 86 3e
       0.32762292 0.088475294 0.22161572 0.26256263
0000e0 62 e8 9c be 84 c5 98 3e 90 25 64 be 37 f7 8d be
       -0.30646044 0.29838192 -0.22279954 -0.27727672
0000f0 88 2e f5 bd 83 06 d8 bd bf 59 85 bd 64 9b b4 3e
       -0.11971766 -0.10548117 -0.06511258 0.35274804
000100 b1 1d 9e be 8b 70 d2 3d 00 6e 74 3b eb d1 96 3e
       -0.30882028 0.10275372 0.003729701 0.2945703
000110 d6 65 6b be 85 31 c6 bd b1 6a 10 3e 61 e8 a8 be
       -0.22988066 -0.09677414 0.141032 -0.3298979
000120 77 66 8f be 28 d1 85 3d d5 66 99 bd e7 23 88 3d
       -0.28007862 0.06534034 -0.07490317 0.06647473
000130 c8 b6 9d 3d d6 b5 5b 3d 5f b6 36 3e be 67 9c 3e
       0.077008784 0.05364021 0.17843007 0.305479
000140 b0 64 2e bd aa c0 46 3d f9 ba ab be fd b4 cc 3d
       -0.04257649 0.048523583 -0.33541086 0.09995458
000150 2f 56 43 be ff 2d b4 be 36 88 2c 3e a1 4b a2 bd
       -0.19075845 -0.35191342 0.16848835 -0.07924581
000160 11 e4 c1 ba 7f 8d 89 bd c0 3b f8 bd 2b 4f 9f be
       -0.00147927 -0.06716441 -0.121207714 -0.31115088
000170 27 95 95 be 37 f0 2b be 14 67 71 3e ef 6b b3 3d
       -0.29215357 -0.16790853 0.23574477 0.08760821
000180 2f f2 87 bd e8 97 a3 be 8e bb 90 3e ac 51 8b be
       -0.0663799 -0.31951833 0.28268093 -0.27210748
000190 75 f6 c4 3d 21 f1 8e bd dc 3e 8c 3e 9a 04 b3 be
       0.096173204 -0.069795854 0.27391708 -0.34964448
0001a0 45 db a1 be 33 e3 42 3e 1b 71 3b 3d 66 45 81 be
       -0.31612602 0.19031982 0.045762163 -0.2524826
0001b0 68 3f 20 be e0 5a aa be 82 fb 61 be b5 10 a8 3e
       -0.15649188 -0.33272457 -0.22068599 0.32825246
0001c0 5e 3d 7e be 5c db 87 3e f9 70 ad be 86 e9 98 3e
       -0.24828097 0.26534545 -0.33875254 0.29865664
0001d0 a3 f0 4c be 4e 85 34 3e 1a 1b ee 3d 57 d3 c5 3b
       -0.2001367 0.17628977 0.11626263 0.0060371566
0001e0 bf 9b 6f 3c 65 e9 30 3d f4 73 76 3c 29 6d a9 3e
       0.014624535 0.043191332 0.015042294 0.33091095
0001f0 98 7e 63 be 63 91 98 be 8c 35 47 3e ee 41 88 3e
       -0.2221626 -0.2979842 0.1945402 0.266128
000200 f8 1f 58 bd 61 d7 a0 be ae 2c 4a be 3a b4 30 3d
       -0.052764863 -0.3141432 -0.19743606 0.043140627
000210 61 d7 fd 3d 36 e4 54 3d 0f 12 ef 3d e3 d0 9b 3d
       0.12394596 0.05197545 0.11673366 0.07608201
000220 d2 0f 18 be af df 66 be f1 93 eb 3d f2 1c 42 3e
       -0.14849785 -0.22546266 0.11502827 0.18956354
000230 d3 6f 88 3d 8f e3 06 bb 07 82 d5 bd 62 ef 8f be
       0.06661954 -0.0020582413 -0.104251914 -0.28112322
000240 f6 c6 b9 3d 76 5c d5 bb 09 99 54 3e e3 d0 89 3e
       0.09071152 -0.0065112663 0.20761503 0.2691718
000250 bf 9e 72 be 07 a0 35 3d 56 75 4a 3e 9d c3 e1 3d
       -0.2369337 0.044342067 0.19771323 0.110236384
000260 cd 44 24 3e 47 00 65 bd 7a a8 51 be 3d 80 8d 3d
       0.1604187 -0.055908468 -0.20474425 0.06909225
000270 06 f4 f3 bc 04 2d 67 3e 4a fd 52 be d9 56 3a 3e
       -0.029779445 0.22575766 -0.20604435 0.18197192
000280 4b f7 8a 3e b1 c2 f5 bd 33 b4 d3 3b ae 68 5a be
       0.27141795 -0.12000025 0.0064606904 -0.21328995
000290 f3 d4 b1 bd ac 46 92 bd 35 0f 9b bb 90 8a 7a bd
       -0.08683195 -0.07142386 -0.0047320374 -0.0611673
0002a0 d5 fa 66 bd 9f c7 6c bd 46 8c fc bd 2c 53 99 be
       -0.056391556 -0.05780756 -0.123314425 -0.29946268
0002b0 01 87 26 3e 58 87 70 be bd d0 89 3e 8a 5a 91 3e
       0.16262437 -0.2348913 0.26917067 0.28389388
0002c0 5a 31 ee 3b 0e e8 bb bd 5a 2f 51 be 95 c1 22 be
       0.0072690668 -0.0917512 -0.2042822 -0.15894158
0002d0 89 1c 6e bd ce 29 93 3e d4 d3 49 be fa e6 91 3e
       -0.058132682 0.28742832 -0.19709712 0.28496534
0002e0 dd 52 57 3c ff ca d0 bc 9d ae 45 3d 33 b8 89 be
       0.013142315 -0.025487421 0.048262227 -0.26898345
0002f0 e2 cb 88 bd 3b 53 91 3d 6b 92 fc 3d 82 39 95 be
       -0.066795126 0.07095953 0.123326145 -0.29145437
000300 e5 b3 84 be 54 cf 80 3d 55 fa b2 bd bd 0e 2f be
       -0.259185 0.06289545 -0.08739153 -0.17095466
000310 c1 7b c4 3d 62 ae 98 3e 99 4f 8c 3e 21 b6 9a be
       0.09593917 0.29820544 0.27404478 -0.30217078
000320 65 19 6b bc ed 4c 94 3e 6e 8f db bd aa 4e 48 3e
       -0.014349316 0.2896494 -0.107207164 0.19561258
000330 a9 a6 a3 39 7f 82 84 bd 4a 99 4e 3c a2 31 92 be
       0.00031213954 -0.06470203 0.012609789 -0.28553492
000340 5e 2a 9b be de 05 15 3d f2 05 22 3e 22 38 12 be
       -0.3030576 0.03638255 0.1582258 -0.14279225
000350 50 a0 70 3e ef 8b 88 bd ae 49 03 3e 29 3a f8 bd
       0.23498654 -0.06667315 0.12821075 -0.12120468
000360 80 29 02 be d3 71 95 be 88 69 6a be 0d 8e d0 bd
       -0.12711143 -0.29188403 -0.2289182 -0.10183344
000370 b1 24 b7 3d 80 79 a1 be 57 c8 40 3c f6 f9 6c 3d
       0.08942545 -0.3153801 0.011766515 0.05785557
000380 bd 24 7a bd ca 59 44 bd 48 fe 05 bc 5a c9 82 be
       -0.061070193 -0.047937192 -0.008178301 -0.25544244
000390 20 1f a4 3e 9b bd 43 3e b4 1e 86 be 04 ad a2 3e
       0.32054996 0.19115297 -0.261953 0.31772625
0003a0 a6 1b 6b 3d 5a e8 15 3e 5b 7e 38 be f0 b5 91 bd
       0.057399414 0.14639416 -0.18016951 -0.0711478
0003b0 37 7a 90 bd 18 04 94 3e 80 07 c0 bd 5f fc a8 be
       -0.07054561 0.28909373 -0.093764305 -0.33005044
0003c0 5e 2d 52 be cb 67 2c 3e 1c 4a d7 3d 5c 99 4f be
       -0.20525119 0.16836469 0.10512182 -0.20273346
0003d0 a5 65 18 be 9a 5e ef bd 25 9f 41 3e c6 75 be 3d
       -0.14882524 -0.11687966 0.18908365 0.09299807
0003e0 79 51 b4 be 88 59 ae be d6 30 2e 3e 2b 69 25 3e
       -0.3521841 -0.34052682 0.17010817 0.161534
0003f0 5d c0 91 3e 8e 4f b2 be 05 fd 3a 3e 5c 4e af 3e
       0.28467074 -0.3482632 0.18260582 0.3423947

critic.0.bias f4 [256]
000000 2b 14 9f 3e e2 48 05 be 39 55 1d be 90 c9 9c 3e
       0.31070074 -0.13016084 -0.15364541 0.3062253
000010 56 20 59 bd 5b bc 4a 3d c2 68 a4 3e b2 c8 2b 3d
       -0.053009354 0.049496036 0.32111174 0.041939445
000020 dd 54 cc 3d bb c3 9d bc ea 47 48 bd 52 f9 c2 3d
       0.09977124 -0.01925837 -0.048896708 0.0952021
000030 0f 68 34 3d 58 32 0e 3e ea 2e 67 be a3 a2 92 be
       0.04404455 0.13886392 -0.2257649 -0.28639707
000040 1f d1 89 3e f0 be 75 3e 74 e6 9f 3e 1e 66 8b 3e
       0.2691736 0.23998618 0.3123051 0.27226347
000050 ef 87 47 3e 95 01 08 3c 9b 76 22 be 66 25 5d be
       0.19485448 0.008301158 -0.15865557 -0.21596298
000060 61 36 e8 bd fc 03 d1 3d 52 8c 5e 3e a2 e7 b7 bd
       -0.11338497 0.10205838 0.21733215 -0.08979727
000070 03 d4 a9 3e fb 56 81 3e 05 b1 65 3e cc 32 94 3d
       0.33169565 0.25261673 0.22430809 0.07236251
000080 c1 5c 76 3d 19 00 a2 bd cd 81 78 be df 10 0d be
       0.06014705 -0.07910175 -0.24268265 -0.13775967
000090 71 aa b4 37 2c 28 87 3d cf b4 86 be 84 dc f2 bd
       2.153704e-05 0.06599459 -0.2630982 -0.11858466
0000a0 33 64 63 be 20 b9 66 be 05 e9 a6 be 9c 83 a0 be
       -0.22206192 -0.22531557 -0.32599655 -0.3135041
0000b0 d7 49 43 3e 42 ed 6b 3e 7d 71 2b 3e 80 87 00 be
       0.19071136 0.23039725 0.16742511 -0.12551689
0000c0 f3 34 f3 3d d8 73 b1 be ef a7 95 3e 21 46 a3 be
       0.11875334 -0.34658694 0.29229686 -0.31889442
0000d0 45 e5 bf bd 98 e9 5e 3e 25 af 97 be e4 41 46 3e
       -0.093699016 0.21768796 -0.29625812 0.19361073
0000e0 69 86 4d 3e 67 40 93 3e 31 18 64 be f9 f8 8f be
       0.20070805 0.28760073 -0.22274853 -0.2811964
0000f0 6a c3 5f 3e 64 3e 89 3e 34 0c 5c 3e 18 90 85 be
       0.21851888 0.26805413 0.2148903 -0.26086497
000100 cf a7 67 bc cc 3d 91 3b 85 24 b2 bd f7 72 8a 3e
       -0.01413913 0.0044324156 -0.08698372 0.27040836
000110 ee be a2 3e 84 4f cc bd 4e 41 c4 3d be df 8a 3e
       0.31786293 -0.09976104 0.095827684 0.27123827
000120 55 df 4d be e0 0d 48 3e 10 a4 95 3d 20 79 8d 3c
       -0.20104726 0.19536543 0.07306683 0.017269671
000130 da 9b 48 be e9 7a 38 3d fc 8b 9c ba 78 81 1b be
       -0.19590703 0.04503909 -0.0011943574 -0.15186107
000140 42 73 b1 3e 80 f6 a4 be 43 1d 5a 3e f6 7b 75 be
       0.34658247 -0.32219315 0.21300225 -0.23973069
000150 14 7e 21 be da ab 4e be 7f d6 ce 3d 91 7d b7 bd
       -0.15770751 -0.20182744 0.10099506 -0.08959497
000160 bf 6e d3 bd db f0 9b be 02 a5 af bc 44 5e 1a 3e
       -0.103238575 -0.30457196 -0.021440987 0.15075022
000170 c6 75 7f 3e e6 1d a8 3e b2 ea 15 3e b0 c9 7d 3e
       0.24947271 0.3283531 0.1464031 0.24783969
000180 18 d2 75 be 3c 2d 93 bd 4a f5 b4 be 17 fc 62 bc
       -0.24005926 -0.07186362 -0.3534339 -0.013854048
000190 fa 95 a1 3e 57 8e 0f 3e 53 91 43 bd 66 b1 c1 3d
       0.31559736 0.14019142 -0.047746014 0.09457664
0001a0 15 50 81 be df cb a1 be 6e 84 24 be 41 d6 a0 be
       -0.2525641 -0.31600854 -0.16066143 -0.31413463
0001b0 50 e0 34 3e 60 30 2e 3e e3 2c 9c be f7 a7 75 be
       0.17663693 0.17010641 -0.30502996 -0.23989855
0001c0 80 9c 33 3d 6b f6 58 3e 9b fd ae 3e d5 01 33 be
       0.043850422 0.21187751 0.3417786 -0.17481168
0001d0 60 fa ae 3d 19 81 34 3e 58 98 a3 3d dc 2a a6 be
       0.08543849 0.17627372 0.07988042 -0.32454574
0001e0 55 9a 62 bb 29 90 af be 10 5b 9d 3e d1 69 a5 3e
       -0.0034576852 -0.34289673 0.30733538 0.32307294
0001f0 a0 77 47 bd 4b c5 8a 3e 41 b5 3d be 06 4f 2c be
       -0.048698068 0.27103648 -0.18526174 -0.1682702
000200 0f a6 9d 3e a9 cd 3d be e3 ab 5e be 40 8d f7 bd
       0.30790755 -0.18535484 -0.21745257 -0.12087488
000210 73 9a a6 3e 65 83 a0 3e 17 1d b3 3e 59 86 79 bd
       0.3253971 0.31350246 0.3498313 -0.06091914
000220 6a a8 8d 3c 08 30 84 bd ac 98 c1 bc 6e d1 d8 bd
       0.01729222 -0.06454474 -0.02363237 -0.105868205
000230 69 45 b3 3e 5d 05 1b be ce e3 8b 3e 97 9f 90 be
       0.35013893 -0.15138765 0.2732224 -0.28246757
000240 83 52 97 bd f8 42 8b 3e 11 b9 0a 3d 21 6a 8f be
       -0.07388785 0.2719953 0.0338679 -0.28010657
000250 63 bf 8f be 82 98 12 be c8 45 9e 3e 9e 26 fa 3d
       -0.28075704 -0.1431599 0.30912614 0.12214397
000260 06 ac 1e be 32 b5 24 be ba 46 b1 be 56 5a 7e be
       -0.15495309 -0.16084746 -0.34624273 -0.24839148
000270 33 b8 6e be 65 ad 7d bb 39 e1 35 3e c4 bd 3e 3e
       -0.23312454 -0.0038708088 0.17761697 0.18627077
000280 a1 9d b4 be 63 ad 88 3e e7 c5 35 bd b0 d9 85 3c
       -0.3527651 0.26694784 -0.044378188 0.016339153
000290 8c a5 4f 3d d0 9a 46 be ab 79 a8 bd 0f dc ba bd
       0.050694987 -0.19394994 -0.08226331 -0.09124004
0002a0 4e 3a 7c be ce 91 c0 3d 7c 77 92 bc 18 c3 9d be
       -0.24631616 0.0940281 -0.01787924 -0.30812907
0002b0 9d 37 4f 3e e4 c7 89 be 6a 76 90 bd ac da 8f bd
       0.20236059 -0.26910317 -0.07053836 -0.0702413
0002c0 d0 15 0a 3e 7c 53 13 3c 4d b0 a6 3c a7 8a 43 be
       0.13484883 0.008992072 0.020347739 -0.1909586
0002d0 cb b9 52 be 2a 5d e7 3d aa 2f e7 3d 86 cd a0 3e
       -0.20578687 0.112970665 0.11288388 0.31406802
0002e0 3c 76 49 3e 2e 74 7e be b1 28 f6 3d 5b af 08 be
       0.19674009 -0.24849007 0.1201948 -0.13348143
0002f0 bc cf a8 3e a4 11 fb 3d 8b 50 b1 bd c3 26 9e be
       0.3297099 0.12259224 -0.086579405 -0.30888948
000300 79 bd 50 bd d5 34 5f 3e 32 d3 98 3e 84 4d 70 3e
       -0.050961945 0.21797498 0.2984863 0.2346707
000310 55 7a b3 be 8f d7 7e be 8d 8e e3 bc cb 4f 24 be
       -0.3505427 -0.24886917 -0.027777934 -0.16046064
000320 ed 80 a7 be 19 c6 46 bd d4 2d 7d be 76 ef 0c be
       -0.3271555 -0.048528764 -0.24724513 -0.13763222
000330 45 6b 9a be b6 03 31 be e5 0e a8 bd 79 bb a1 be
       -0.30159965 -0.17286572 -0.08205966 -0.31588343
000340 86 f4 85 3e 13 ce b2 be 47 46 68 3e 48 5d 48 be
       0.2616312 -0.34922847 0.22683059 -0.19566834
000350 2b c7 4f be 27 19 1f be 0e bb 26 3e 37 1c 97 be
       -0.2029082 -0.15536939 0.16282293 -0.29513714
000360 dc 20 69 be 34 81 22 be 11 58 98 3e 50 35 88 be
       -0.22766441 -0.158696 0.2975469 -0.26603174
000370 51 93 9f be 70 eb a1 3e 8d de c8 3d fa 00 99 be
       -0.3116708 0.31624937 0.09808073 -0.29883558
000380 5e b4 d0 3c 0d 5c a5 3d 57 f4 aa 3d f2 74 85 3e
       0.02547663 0.08074198 0.083473854 0.26065785
000390 e2 e6 ae 3e a6 2c 65 3b 70 8b 8e 3e 50 70 5a be
       0.34160525 0.003496924 0.27840757 -0.21331906
0003a0 73 7a ae 3e c2 f7 8c be b2 81 c4 3c e6 97 87 3e
       0.34077796 -0.27532774 0.023987625 0.26483077
0003b0 b6 40 f2 bc cf 12 8e 3d 39 05 01 be d4 52 82 be
       -0.029571872 0.06937181 -0.12599649 -0.25453818
0003c0 07 69 a4 be 66 4e 9e 3e 9d 1e 9c be 9a dd 0d be
       -0.3211138 0.30919188 -0.30492106 -0.13854066
0003d0 aa bb 32 3e 8f fc 9c 3e cb ae b4 be cf 73 7d 3e
       0.174544 0.30661437 -0.35289606 0.24751209
0003e0 03 1c 8c 3e 49 0d a7 3d a9 8a 54 3e e9 50 d4 bd
       0.2736512 0.08156831 0.2075602 -0.10366995
0003f0 e9 58 41 be 3b 48 4b 3c 8f 14 3a 3e 5b 09 40 be
       -0.18881573 0.012407358 0.18171905 -0.18753569
